Model: "functional"
┏━━━━━━━━━━━━━━━━━━━━━━━━━━━━━━━┳━━━━━━━━━━━━━━━━━━━━━━━━━━━┳━━━━━━━━━━━━━━━━━┳━━━━━━━━━━━━━━━━━━━━━━━━━━━━┓
┃ Layer (type)                  ┃ Output Shape              ┃         Param # ┃ Connected to               ┃
┡━━━━━━━━━━━━━━━━━━━━━━━━━━━━━━━╇━━━━━━━━━━━━━━━━━━━━━━━━━━━╇━━━━━━━━━━━━━━━━━╇━━━━━━━━━━━━━━━━━━━━━━━━━━━━┩
│ input_layer (InputLayer)      │ (None, 90000)             │               0 │ -                          │
├───────────────────────────────┼───────────────────────────┼─────────────────┼────────────────────────────┤
│ reshape (Reshape)             │ (None, 300, 300, 1)       │               0 │ input_layer[0][0]          │
├───────────────────────────────┼───────────────────────────┼─────────────────┼────────────────────────────┤
│ rescaling (Rescaling)         │ (None, 300, 300, 1)       │               0 │ reshape[0][0]              │
├───────────────────────────────┼───────────────────────────┼─────────────────┼────────────────────────────┤
│ resizing (Resizing)           │ (None, 120, 120, 1)       │               0 │ rescaling[0][0]            │
├───────────────────────────────┼───────────────────────────┼─────────────────┼────────────────────────────┤
│ reshape_1 (Reshape)           │ (None, 15, 8, 15, 8, 1)   │               0 │ resizing[0][0]             │
├───────────────────────────────┼───────────────────────────┼─────────────────┼────────────────────────────┤
│ permute (Permute)             │ (None, 15, 15, 8, 8, 1)   │               0 │ reshape_1[0][0]            │
├───────────────────────────────┼───────────────────────────┼─────────────────┼────────────────────────────┤
│ reshape_2 (Reshape)           │ (None, 225, 64)           │               0 │ permute[0][0]              │
├───────────────────────────────┼───────────────────────────┼─────────────────┼────────────────────────────┤
│ dense (Dense)                 │ (None, 225, 128)          │           8,320 │ reshape_2[0][0]            │
├───────────────────────────────┼───────────────────────────┼─────────────────┼────────────────────────────┤
│ add_location_to_patches       │ (None, 225, 128)          │          28,800 │ dense[0][0]                │
│ (add_location_to_patches)     │                           │                 │                            │
├───────────────────────────────┼───────────────────────────┼─────────────────┼────────────────────────────┤
│ layer_normalization           │ (None, 225, 128)          │             256 │ add_location_to_patches[0… │
│ (LayerNormalization)          │                           │                 │                            │
├───────────────────────────────┼───────────────────────────┼─────────────────┼────────────────────────────┤
│ permute_1 (Permute)           │ (None, 128, 225)          │               0 │ layer_normalization[0][0]  │
├───────────────────────────────┼───────────────────────────┼─────────────────┼────────────────────────────┤
│ dense_1 (Dense)               │ (None, 128, 64)           │          14,464 │ permute_1[0][0]            │
├───────────────────────────────┼───────────────────────────┼─────────────────┼────────────────────────────┤
│ dropout (Dropout)             │ (None, 128, 64)           │               0 │ dense_1[0][0]              │
├───────────────────────────────┼───────────────────────────┼─────────────────┼────────────────────────────┤
│ dense_2 (Dense)               │ (None, 128, 225)          │          14,625 │ dropout[0][0]              │
├───────────────────────────────┼───────────────────────────┼─────────────────┼────────────────────────────┤
│ permute_2 (Permute)           │ (None, 225, 128)          │               0 │ dense_2[0][0]              │
├───────────────────────────────┼───────────────────────────┼─────────────────┼────────────────────────────┤
│ add (Add)                     │ (None, 225, 128)          │               0 │ add_location_to_patches[0… │
│                               │                           │                 │ permute_2[0][0]            │
├───────────────────────────────┼───────────────────────────┼─────────────────┼────────────────────────────┤
│ layer_normalization_1         │ (None, 225, 128)          │             256 │ add[0][0]                  │
│ (LayerNormalization)          │                           │                 │                            │
├───────────────────────────────┼───────────────────────────┼─────────────────┼────────────────────────────┤
│ dense_3 (Dense)               │ (None, 225, 256)          │          33,024 │ layer_normalization_1[0][… │
├───────────────────────────────┼───────────────────────────┼─────────────────┼────────────────────────────┤
│ dropout_1 (Dropout)           │ (None, 225, 256)          │               0 │ dense_3[0][0]              │
├───────────────────────────────┼───────────────────────────┼─────────────────┼────────────────────────────┤
│ dense_4 (Dense)               │ (None, 225, 128)          │          32,896 │ dropout_1[0][0]            │
├───────────────────────────────┼───────────────────────────┼─────────────────┼────────────────────────────┤
│ dropout_2 (Dropout)           │ (None, 225, 128)          │               0 │ dense_4[0][0]              │
├───────────────────────────────┼───────────────────────────┼─────────────────┼────────────────────────────┤
│ add_1 (Add)                   │ (None, 225, 128)          │               0 │ add[0][0], dropout_2[0][0] │
├───────────────────────────────┼───────────────────────────┼─────────────────┼────────────────────────────┤
│ concatenate (Concatenate)     │ (None, 225, 256)          │               0 │ add_location_to_patches[0… │
│                               │                           │                 │ add_1[0][0]                │
├───────────────────────────────┼───────────────────────────┼─────────────────┼────────────────────────────┤
│ dense_5 (Dense)               │ (None, 225, 128)          │          32,896 │ concatenate[0][0]          │
├───────────────────────────────┼───────────────────────────┼─────────────────┼────────────────────────────┤
│ layer_normalization_2         │ (None, 225, 128)          │             256 │ dense_5[0][0]              │
│ (LayerNormalization)          │                           │                 │                            │
├───────────────────────────────┼───────────────────────────┼─────────────────┼────────────────────────────┤
│ permute_3 (Permute)           │ (None, 128, 225)          │               0 │ layer_normalization_2[0][… │
├───────────────────────────────┼───────────────────────────┼─────────────────┼────────────────────────────┤
│ dense_6 (Dense)               │ (None, 128, 64)           │          14,464 │ permute_3[0][0]            │
├───────────────────────────────┼───────────────────────────┼─────────────────┼────────────────────────────┤
│ dropout_3 (Dropout)           │ (None, 128, 64)           │               0 │ dense_6[0][0]              │
├───────────────────────────────┼───────────────────────────┼─────────────────┼────────────────────────────┤
│ dense_7 (Dense)               │ (None, 128, 225)          │          14,625 │ dropout_3[0][0]            │
├───────────────────────────────┼───────────────────────────┼─────────────────┼────────────────────────────┤
│ permute_4 (Permute)           │ (None, 225, 128)          │               0 │ dense_7[0][0]              │
├───────────────────────────────┼───────────────────────────┼─────────────────┼────────────────────────────┤
│ add_2 (Add)                   │ (None, 225, 128)          │               0 │ dense_5[0][0],             │
│                               │                           │                 │ permute_4[0][0]            │
├───────────────────────────────┼───────────────────────────┼─────────────────┼────────────────────────────┤
│ layer_normalization_3         │ (None, 225, 128)          │             256 │ add_2[0][0]                │
│ (LayerNormalization)          │                           │                 │                            │
├───────────────────────────────┼───────────────────────────┼─────────────────┼────────────────────────────┤
│ dense_8 (Dense)               │ (None, 225, 256)          │          33,024 │ layer_normalization_3[0][… │
├───────────────────────────────┼───────────────────────────┼─────────────────┼────────────────────────────┤
│ dropout_4 (Dropout)           │ (None, 225, 256)          │               0 │ dense_8[0][0]              │
├───────────────────────────────┼───────────────────────────┼─────────────────┼────────────────────────────┤
│ dense_9 (Dense)               │ (None, 225, 128)          │          32,896 │ dropout_4[0][0]            │
├───────────────────────────────┼───────────────────────────┼─────────────────┼────────────────────────────┤
│ dropout_5 (Dropout)           │ (None, 225, 128)          │               0 │ dense_9[0][0]              │
├───────────────────────────────┼───────────────────────────┼─────────────────┼────────────────────────────┤
│ add_3 (Add)                   │ (None, 225, 128)          │               0 │ add_2[0][0],               │
│                               │                           │                 │ dropout_5[0][0]            │
├───────────────────────────────┼───────────────────────────┼─────────────────┼────────────────────────────┤
│ concatenate_1 (Concatenate)   │ (None, 225, 384)          │               0 │ add_location_to_patches[0… │
│                               │                           │                 │ add_1[0][0], add_3[0][0]   │
├───────────────────────────────┼───────────────────────────┼─────────────────┼────────────────────────────┤
│ dense_10 (Dense)              │ (None, 225, 128)          │          49,280 │ concatenate_1[0][0]        │
├───────────────────────────────┼───────────────────────────┼─────────────────┼────────────────────────────┤
│ layer_normalization_4         │ (None, 225, 128)          │             256 │ dense_10[0][0]             │
│ (LayerNormalization)          │                           │                 │                            │
├───────────────────────────────┼───────────────────────────┼─────────────────┼────────────────────────────┤
│ permute_5 (Permute)           │ (None, 128, 225)          │               0 │ layer_normalization_4[0][… │
├───────────────────────────────┼───────────────────────────┼─────────────────┼────────────────────────────┤
│ dense_11 (Dense)              │ (None, 128, 64)           │          14,464 │ permute_5[0][0]            │
├───────────────────────────────┼───────────────────────────┼─────────────────┼────────────────────────────┤
│ dropout_6 (Dropout)           │ (None, 128, 64)           │               0 │ dense_11[0][0]             │
├───────────────────────────────┼───────────────────────────┼─────────────────┼────────────────────────────┤
│ dense_12 (Dense)              │ (None, 128, 225)          │          14,625 │ dropout_6[0][0]            │
├───────────────────────────────┼───────────────────────────┼─────────────────┼────────────────────────────┤
│ permute_6 (Permute)           │ (None, 225, 128)          │               0 │ dense_12[0][0]             │
├───────────────────────────────┼───────────────────────────┼─────────────────┼────────────────────────────┤
│ add_4 (Add)                   │ (None, 225, 128)          │               0 │ dense_10[0][0],            │
│                               │                           │                 │ permute_6[0][0]            │
├───────────────────────────────┼───────────────────────────┼─────────────────┼────────────────────────────┤
│ layer_normalization_5         │ (None, 225, 128)          │             256 │ add_4[0][0]                │
│ (LayerNormalization)          │                           │                 │                            │
├───────────────────────────────┼───────────────────────────┼─────────────────┼────────────────────────────┤
│ dense_13 (Dense)              │ (None, 225, 256)          │          33,024 │ layer_normalization_5[0][… │
├───────────────────────────────┼───────────────────────────┼─────────────────┼────────────────────────────┤
│ dropout_7 (Dropout)           │ (None, 225, 256)          │               0 │ dense_13[0][0]             │
├───────────────────────────────┼───────────────────────────┼─────────────────┼────────────────────────────┤
│ dense_14 (Dense)              │ (None, 225, 128)          │          32,896 │ dropout_7[0][0]            │
├───────────────────────────────┼───────────────────────────┼─────────────────┼────────────────────────────┤
│ dropout_8 (Dropout)           │ (None, 225, 128)          │               0 │ dense_14[0][0]             │
├───────────────────────────────┼───────────────────────────┼─────────────────┼────────────────────────────┤
│ add_5 (Add)                   │ (None, 225, 128)          │               0 │ add_4[0][0],               │
│                               │                           │                 │ dropout_8[0][0]            │
├───────────────────────────────┼───────────────────────────┼─────────────────┼────────────────────────────┤
│ concatenate_2 (Concatenate)   │ (None, 225, 512)          │               0 │ add_location_to_patches[0… │
│                               │                           │                 │ add_1[0][0], add_3[0][0],  │
│                               │                           │                 │ add_5[0][0]                │
├───────────────────────────────┼───────────────────────────┼─────────────────┼────────────────────────────┤
│ dense_15 (Dense)              │ (None, 225, 128)          │          65,664 │ concatenate_2[0][0]        │
├───────────────────────────────┼───────────────────────────┼─────────────────┼────────────────────────────┤
│ layer_normalization_6         │ (None, 225, 128)          │             256 │ dense_15[0][0]             │
│ (LayerNormalization)          │                           │                 │                            │
├───────────────────────────────┼───────────────────────────┼─────────────────┼────────────────────────────┤
│ global_average_pooling1d      │ (None, 128)               │               0 │ layer_normalization_6[0][… │
│ (GlobalAveragePooling1D)      │                           │                 │                            │
├───────────────────────────────┼───────────────────────────┼─────────────────┼────────────────────────────┤
│ dense_16 (Dense)              │ (None, 256)               │          33,024 │ global_average_pooling1d[… │
├───────────────────────────────┼───────────────────────────┼─────────────────┼────────────────────────────┤
│ dropout_9 (Dropout)           │ (None, 256)               │               0 │ dense_16[0][0]             │
├───────────────────────────────┼───────────────────────────┼─────────────────┼────────────────────────────┤
│ dense_17 (Dense)              │ (None, 5)                 │           1,285 │ dropout_9[0][0]            │
└───────────────────────────────┴───────────────────────────┴─────────────────┴────────────────────────────┘
 Total params: 506,088 (1.93 MB)
 Trainable params: 506,088 (1.93 MB)
 Non-trainable params: 0 (0.00 B)

