Model: "functional"
┏━━━━━━━━━━━━━━━━━━━━━━━━━━━━━━━┳━━━━━━━━━━━━━━━━━━━━━━━━━━━┳━━━━━━━━━━━━━━━━━┳━━━━━━━━━━━━━━━━━━━━━━━━━━━━┓
┃ Layer (type)                  ┃ Output Shape              ┃         Param # ┃ Connected to               ┃
┡━━━━━━━━━━━━━━━━━━━━━━━━━━━━━━━╇━━━━━━━━━━━━━━━━━━━━━━━━━━━╇━━━━━━━━━━━━━━━━━╇━━━━━━━━━━━━━━━━━━━━━━━━━━━━┩
│ input_layer (InputLayer)      │ (None, 270000)            │               0 │ -                          │
├───────────────────────────────┼───────────────────────────┼─────────────────┼────────────────────────────┤
│ reshape (Reshape)             │ (None, 300, 300, 3)       │               0 │ input_layer[0][0]          │
├───────────────────────────────┼───────────────────────────┼─────────────────┼────────────────────────────┤
│ rescaling (Rescaling)         │ (None, 300, 300, 3)       │               0 │ reshape[0][0]              │
├───────────────────────────────┼───────────────────────────┼─────────────────┼────────────────────────────┤
│ resizing (Resizing)           │ (None, 120, 120, 3)       │               0 │ rescaling[0][0]            │
├───────────────────────────────┼───────────────────────────┼─────────────────┼────────────────────────────┤
│ reshape_1 (Reshape)           │ (None, 15, 8, 15, 8, 3)   │               0 │ resizing[0][0]             │
├───────────────────────────────┼───────────────────────────┼─────────────────┼────────────────────────────┤
│ permute (Permute)             │ (None, 15, 15, 8, 8, 3)   │               0 │ reshape_1[0][0]            │
├───────────────────────────────┼───────────────────────────┼─────────────────┼────────────────────────────┤
│ reshape_2 (Reshape)           │ (None, 225, 192)          │               0 │ permute[0][0]              │
├───────────────────────────────┼───────────────────────────┼─────────────────┼────────────────────────────┤
│ dense (Dense)                 │ (None, 225, 256)          │          49,408 │ reshape_2[0][0]            │
├───────────────────────────────┼───────────────────────────┼─────────────────┼────────────────────────────┤
│ layer_normalization           │ (None, 225, 256)          │               0 │ dense[0][0]                │
│ (LayerNormalization)          │                           │                 │                            │
├───────────────────────────────┼───────────────────────────┼─────────────────┼────────────────────────────┤
│ permute_1 (Permute)           │ (None, 256, 225)          │               0 │ layer_normalization[0][0]  │
├───────────────────────────────┼───────────────────────────┼─────────────────┼────────────────────────────┤
│ dense_1 (Dense)               │ (None, 256, 128)          │          28,928 │ permute_1[0][0]            │
├───────────────────────────────┼───────────────────────────┼─────────────────┼────────────────────────────┤
│ dense_2 (Dense)               │ (None, 256, 225)          │          29,025 │ dense_1[0][0]              │
├───────────────────────────────┼───────────────────────────┼─────────────────┼────────────────────────────┤
│ permute_2 (Permute)           │ (None, 225, 256)          │               0 │ dense_2[0][0]              │
├───────────────────────────────┼───────────────────────────┼─────────────────┼────────────────────────────┤
│ add (Add)                     │ (None, 225, 256)          │               0 │ dense[0][0],               │
│                               │                           │                 │ permute_2[0][0]            │
├───────────────────────────────┼───────────────────────────┼─────────────────┼────────────────────────────┤
│ layer_normalization_1         │ (None, 225, 256)          │               0 │ add[0][0]                  │
│ (LayerNormalization)          │                           │                 │                            │
├───────────────────────────────┼───────────────────────────┼─────────────────┼────────────────────────────┤
│ dense_3 (Dense)               │ (None, 225, 512)          │         131,584 │ layer_normalization_1[0][… │
├───────────────────────────────┼───────────────────────────┼─────────────────┼────────────────────────────┤
│ dense_4 (Dense)               │ (None, 225, 512)          │         131,584 │ layer_normalization_1[0][… │
├───────────────────────────────┼───────────────────────────┼─────────────────┼────────────────────────────┤
│ multiply (Multiply)           │ (None, 225, 512)          │               0 │ dense_3[0][0],             │
│                               │                           │                 │ dense_4[0][0]              │
├───────────────────────────────┼───────────────────────────┼─────────────────┼────────────────────────────┤
│ dropout (Dropout)             │ (None, 225, 512)          │               0 │ multiply[0][0]             │
├───────────────────────────────┼───────────────────────────┼─────────────────┼────────────────────────────┤
│ dense_5 (Dense)               │ (None, 225, 256)          │         131,328 │ dropout[0][0]              │
├───────────────────────────────┼───────────────────────────┼─────────────────┼────────────────────────────┤
│ add_1 (Add)                   │ (None, 225, 256)          │               0 │ add[0][0], dense_5[0][0]   │
├───────────────────────────────┼───────────────────────────┼─────────────────┼────────────────────────────┤
│ layer_normalization_2         │ (None, 225, 256)          │               0 │ add_1[0][0]                │
│ (LayerNormalization)          │                           │                 │                            │
├───────────────────────────────┼───────────────────────────┼─────────────────┼────────────────────────────┤
│ permute_3 (Permute)           │ (None, 256, 225)          │               0 │ layer_normalization_2[0][… │
├───────────────────────────────┼───────────────────────────┼─────────────────┼────────────────────────────┤
│ dense_6 (Dense)               │ (None, 256, 128)          │          28,928 │ permute_3[0][0]            │
├───────────────────────────────┼───────────────────────────┼─────────────────┼────────────────────────────┤
│ dense_7 (Dense)               │ (None, 256, 225)          │          29,025 │ dense_6[0][0]              │
├───────────────────────────────┼───────────────────────────┼─────────────────┼────────────────────────────┤
│ permute_4 (Permute)           │ (None, 225, 256)          │               0 │ dense_7[0][0]              │
├───────────────────────────────┼───────────────────────────┼─────────────────┼────────────────────────────┤
│ add_2 (Add)                   │ (None, 225, 256)          │               0 │ add_1[0][0],               │
│                               │                           │                 │ permute_4[0][0]            │
├───────────────────────────────┼───────────────────────────┼─────────────────┼────────────────────────────┤
│ layer_normalization_3         │ (None, 225, 256)          │               0 │ add_2[0][0]                │
│ (LayerNormalization)          │                           │                 │                            │
├───────────────────────────────┼───────────────────────────┼─────────────────┼────────────────────────────┤
│ dense_8 (Dense)               │ (None, 225, 512)          │         131,584 │ layer_normalization_3[0][… │
├───────────────────────────────┼───────────────────────────┼─────────────────┼────────────────────────────┤
│ dense_9 (Dense)               │ (None, 225, 512)          │         131,584 │ layer_normalization_3[0][… │
├───────────────────────────────┼───────────────────────────┼─────────────────┼────────────────────────────┤
│ multiply_1 (Multiply)         │ (None, 225, 512)          │               0 │ dense_8[0][0],             │
│                               │                           │                 │ dense_9[0][0]              │
├───────────────────────────────┼───────────────────────────┼─────────────────┼────────────────────────────┤
│ dropout_1 (Dropout)           │ (None, 225, 512)          │               0 │ multiply_1[0][0]           │
├───────────────────────────────┼───────────────────────────┼─────────────────┼────────────────────────────┤
│ dense_10 (Dense)              │ (None, 225, 256)          │         131,328 │ dropout_1[0][0]            │
├───────────────────────────────┼───────────────────────────┼─────────────────┼────────────────────────────┤
│ add_3 (Add)                   │ (None, 225, 256)          │               0 │ add_2[0][0],               │
│                               │                           │                 │ dense_10[0][0]             │
├───────────────────────────────┼───────────────────────────┼─────────────────┼────────────────────────────┤
│ layer_normalization_4         │ (None, 225, 256)          │               0 │ add_3[0][0]                │
│ (LayerNormalization)          │                           │                 │                            │
├───────────────────────────────┼───────────────────────────┼─────────────────┼────────────────────────────┤
│ permute_5 (Permute)           │ (None, 256, 225)          │               0 │ layer_normalization_4[0][… │
├───────────────────────────────┼───────────────────────────┼─────────────────┼────────────────────────────┤
│ dense_11 (Dense)              │ (None, 256, 128)          │          28,928 │ permute_5[0][0]            │
├───────────────────────────────┼───────────────────────────┼─────────────────┼────────────────────────────┤
│ dense_12 (Dense)              │ (None, 256, 225)          │          29,025 │ dense_11[0][0]             │
├───────────────────────────────┼───────────────────────────┼─────────────────┼────────────────────────────┤
│ permute_6 (Permute)           │ (None, 225, 256)          │               0 │ dense_12[0][0]             │
├───────────────────────────────┼───────────────────────────┼─────────────────┼────────────────────────────┤
│ add_4 (Add)                   │ (None, 225, 256)          │               0 │ add_3[0][0],               │
│                               │                           │                 │ permute_6[0][0]            │
├───────────────────────────────┼───────────────────────────┼─────────────────┼────────────────────────────┤
│ layer_normalization_5         │ (None, 225, 256)          │               0 │ add_4[0][0]                │
│ (LayerNormalization)          │                           │                 │                            │
├───────────────────────────────┼───────────────────────────┼─────────────────┼────────────────────────────┤
│ dense_13 (Dense)              │ (None, 225, 512)          │         131,584 │ layer_normalization_5[0][… │
├───────────────────────────────┼───────────────────────────┼─────────────────┼────────────────────────────┤
│ dense_14 (Dense)              │ (None, 225, 512)          │         131,584 │ layer_normalization_5[0][… │
├───────────────────────────────┼───────────────────────────┼─────────────────┼────────────────────────────┤
│ multiply_2 (Multiply)         │ (None, 225, 512)          │               0 │ dense_13[0][0],            │
│                               │                           │                 │ dense_14[0][0]             │
├───────────────────────────────┼───────────────────────────┼─────────────────┼────────────────────────────┤
│ dropout_2 (Dropout)           │ (None, 225, 512)          │               0 │ multiply_2[0][0]           │
├───────────────────────────────┼───────────────────────────┼─────────────────┼────────────────────────────┤
│ dense_15 (Dense)              │ (None, 225, 256)          │         131,328 │ dropout_2[0][0]            │
├───────────────────────────────┼───────────────────────────┼─────────────────┼────────────────────────────┤
│ add_5 (Add)                   │ (None, 225, 256)          │               0 │ add_4[0][0],               │
│                               │                           │                 │ dense_15[0][0]             │
├───────────────────────────────┼───────────────────────────┼─────────────────┼────────────────────────────┤
│ layer_normalization_6         │ (None, 225, 256)          │               0 │ add_5[0][0]                │
│ (LayerNormalization)          │                           │                 │                            │
├───────────────────────────────┼───────────────────────────┼─────────────────┼────────────────────────────┤
│ permute_7 (Permute)           │ (None, 256, 225)          │               0 │ layer_normalization_6[0][… │
├───────────────────────────────┼───────────────────────────┼─────────────────┼────────────────────────────┤
│ dense_16 (Dense)              │ (None, 256, 128)          │          28,928 │ permute_7[0][0]            │
├───────────────────────────────┼───────────────────────────┼─────────────────┼────────────────────────────┤
│ dense_17 (Dense)              │ (None, 256, 225)          │          29,025 │ dense_16[0][0]             │
├───────────────────────────────┼───────────────────────────┼─────────────────┼────────────────────────────┤
│ permute_8 (Permute)           │ (None, 225, 256)          │               0 │ dense_17[0][0]             │
├───────────────────────────────┼───────────────────────────┼─────────────────┼────────────────────────────┤
│ add_6 (Add)                   │ (None, 225, 256)          │               0 │ add_5[0][0],               │
│                               │                           │                 │ permute_8[0][0]            │
├───────────────────────────────┼───────────────────────────┼─────────────────┼────────────────────────────┤
│ layer_normalization_7         │ (None, 225, 256)          │               0 │ add_6[0][0]                │
│ (LayerNormalization)          │                           │                 │                            │
├───────────────────────────────┼───────────────────────────┼─────────────────┼────────────────────────────┤
│ dense_18 (Dense)              │ (None, 225, 512)          │         131,584 │ layer_normalization_7[0][… │
├───────────────────────────────┼───────────────────────────┼─────────────────┼────────────────────────────┤
│ dense_19 (Dense)              │ (None, 225, 512)          │         131,584 │ layer_normalization_7[0][… │
├───────────────────────────────┼───────────────────────────┼─────────────────┼────────────────────────────┤
│ multiply_3 (Multiply)         │ (None, 225, 512)          │               0 │ dense_18[0][0],            │
│                               │                           │                 │ dense_19[0][0]             │
├───────────────────────────────┼───────────────────────────┼─────────────────┼────────────────────────────┤
│ dropout_3 (Dropout)           │ (None, 225, 512)          │               0 │ multiply_3[0][0]           │
├───────────────────────────────┼───────────────────────────┼─────────────────┼────────────────────────────┤
│ dense_20 (Dense)              │ (None, 225, 256)          │         131,328 │ dropout_3[0][0]            │
├───────────────────────────────┼───────────────────────────┼─────────────────┼────────────────────────────┤
│ add_7 (Add)                   │ (None, 225, 256)          │               0 │ add_6[0][0],               │
│                               │                           │                 │ dense_20[0][0]             │
├───────────────────────────────┼───────────────────────────┼─────────────────┼────────────────────────────┤
│ layer_normalization_8         │ (None, 225, 256)          │               0 │ add_7[0][0]                │
│ (LayerNormalization)          │                           │                 │                            │
├───────────────────────────────┼───────────────────────────┼─────────────────┼────────────────────────────┤
│ global_average_pooling1d      │ (None, 256)               │               0 │ layer_normalization_8[0][… │
│ (GlobalAveragePooling1D)      │                           │                 │                            │
├───────────────────────────────┼───────────────────────────┼─────────────────┼────────────────────────────┤
│ global_max_pooling1d          │ (None, 256)               │               0 │ layer_normalization_8[0][… │
│ (GlobalMaxPooling1D)          │                           │                 │                            │
├───────────────────────────────┼───────────────────────────┼─────────────────┼────────────────────────────┤
│ concatenate (Concatenate)     │ (None, 512)               │               0 │ global_average_pooling1d[… │
│                               │                           │                 │ global_max_pooling1d[0][0] │
├───────────────────────────────┼───────────────────────────┼─────────────────┼────────────────────────────┤
│ dense_21 (Dense)              │ (None, 384)               │         196,992 │ concatenate[0][0]          │
├───────────────────────────────┼───────────────────────────┼─────────────────┼────────────────────────────┤
│ dense_22 (Dense)              │ (None, 384)               │         196,992 │ concatenate[0][0]          │
├───────────────────────────────┼───────────────────────────┼─────────────────┼────────────────────────────┤
│ dropout_4 (Dropout)           │ (None, 384)               │               0 │ dense_21[0][0]             │
├───────────────────────────────┼───────────────────────────┼─────────────────┼────────────────────────────┤
│ dropout_5 (Dropout)           │ (None, 384)               │               0 │ dense_22[0][0]             │
├───────────────────────────────┼───────────────────────────┼─────────────────┼────────────────────────────┤
│ concatenate_2 (Concatenate)   │ (None, 512)               │               0 │ global_average_pooling1d[… │
│                               │                           │                 │ global_max_pooling1d[0][0] │
├───────────────────────────────┼───────────────────────────┼─────────────────┼────────────────────────────┤
│ concatenate_1 (Concatenate)   │ (None, 768)               │               0 │ dropout_4[0][0],           │
│                               │                           │                 │ dropout_5[0][0]            │
├───────────────────────────────┼───────────────────────────┼─────────────────┼────────────────────────────┤
│ dense_23 (Dense)              │ (None, 768)               │         393,984 │ concatenate_2[0][0]        │
├───────────────────────────────┼───────────────────────────┼─────────────────┼────────────────────────────┤
│ add_8 (Add)                   │ (None, 768)               │               0 │ concatenate_1[0][0],       │
│                               │                           │                 │ dense_23[0][0]             │
├───────────────────────────────┼───────────────────────────┼─────────────────┼────────────────────────────┤
│ dense_24 (Dense)              │ (None, 192)               │         147,648 │ add_8[0][0]                │
├───────────────────────────────┼───────────────────────────┼─────────────────┼────────────────────────────┤
│ dense_25 (Dense)              │ (None, 5)                 │             965 │ dense_24[0][0]             │
└───────────────────────────────┴───────────────────────────┴─────────────────┴────────────────────────────┘
 Total params: 2,795,785 (10.67 MB)
 Trainable params: 2,795,785 (10.67 MB)
 Non-trainable params: 0 (0.00 B)

